spacy-chatbot/data.pth (torch, 378879 bytes, 6 tensors)

seq.0.weight f4 [256, 300]
0	0x3cbc7903	0.023006922
1	0xbd4be977	-0.049783196
2	0xbd3d2f3a	-0.046187617
3	0x3d26fe90	0.040770113
4	0x3cef19da	0.029187132
5	0x3ada4be7	0.0016654701
6	0x3be54d42	0.0069977352
7	0x3d5e64e0	0.05429542
8	0xbcfef2c7	-0.031121625
9	0x3d3c4160	0.045960784
10	0x3d2f365d	0.042776454
11	0xbc3b4535	-0.011430074
12	0x3d07b7b0	0.033134162
13	0xbcda0bbe	-0.026616927
14	0xbd385102	-0.04499913
15	0xbb716bbf	-0.0036837903
16	0x3d6d1ab8	0.05788681
17	0x3bfc6380	0.007702291
18	0xbd05fc22	-0.032711156
19	0xbb0ebd20	-0.0021780208
20	0xbd812d32	-0.063074484
21	0xbcb5fdac	-0.022215687
22	0xbcc83d1e	-0.024443205
23	0xbd3cb622	-0.046072133
24	0xbd32c3fe	-0.043643944
25	0xbd4f69f0	-0.05063814
26	0x3d4cda92	0.050013132
27	0x3c95e2a0	0.01829654
28	0x3d592d95	0.053021986
29	0x3cdacd24	0.026709147
30	0xbcee6f3e	-0.029105779
31	0x3d2b528a	0.041826762
32	0x3d41616e	0.047212057
33	0xbcfd3f5a	-0.030913997
34	0xbce39a61	-0.027783575
35	0x3d054e0e	0.032545142
36	0xbca176cf	-0.019709973
37	0xbd3d7c09	-0.046260867
38	0x3c65227e	0.013985274
39	0xbca1481f	-0.01968771
40	0x3d0d7ae6	0.034541033
41	0x3c2ffd3c	0.010741528
42	0xbd01078d	-0.03150134
43	0x3d1bff7d	0.03808545
44	0x3d07ef39	0.033187125
45	0x3cfd464f	0.030917315
46	0x3c37436a	0.011185506
47	0x3c5a3ae3	0.013319704
48	0xbcb94fe5	-0.022621104
49	0x3c965cbe	0.01835477
50	0x3d81c801	0.06336976
51	0xbb85cec0	-0.0040834844
52	0x3c71b71b	0.014753128
53	0xbcbb08fc	-0.022831433
54	0xbcf48421	-0.02984816
55	0x3cd147c5	0.025546918
56	0x3d9e6cd6	0.077356026
57	0xbd256fba	-0.040389754
58	0x399a31da	0.0002941031
59	0x3c9fa385	0.019487152
60	0xbcc24305	-0.023713598
61	0x3ca86bfb	0.020559302
62	0xbd5aa70d	-0.05338197
63	0xbc505d76	-0.012717595
64	0x3d7d6658	0.06186518
65	0x3d2ac930	0.041695774
66	0xbd67b612	-0.05657012
67	0x3b45b1b6	0.0030165738
68	0x3c87ff3b	0.016601196
69	0x3c4da937	0.012552551
70	0xbd3e948f	-0.046528395
71	0x3ca99cc0	0.020704627
72	0xbb62b914	-0.0034595178
73	0xbc331048	-0.010929175
74	0x3cb47627	0.022028996
75	0x3d48508d	0.048904944
76	0xbcfe0289	-0.031007068
77	0xbc893141	-0.016747119
78	0x3d5f689b	0.05454312
79	0xbc991ca9	-0.018690424
80	0xbd40b2b5	-0.04704543
81	0xbd444bc8	-0.047923833
82	0xbd4fd928	-0.050744206
83	0xbc4e4d9e	-0.012591748
84	0xbd649638	-0.055807322
85	0x3cdcb3d9	0.026941227
86	0x3cd3c8ef	0.025852649
87	0x3d1eaf8f	0.038741644
88	0xbc298861	-0.010347457
89	0xbc94a470	-0.018144816
90	0xbb069e57	-0.0020541155
91	0x3cfac013	0.030609166
92	0xbccd3a3d	-0.025052184
93	0xbd8a3fbe	-0.06750439
94	0x3b3673e1	0.0027840065
95	0x3d080889	0.033211265
96	0xbd69be7b	-0.057066422
97	0x3d2046b0	0.039129913
98	0x3884925e	6.3215135e-05
99	0xbc6810e7	-0.014164186
100	0x3d191212	0.03737075
101	0x3c9ed983	0.019390827
102	0xbd0d6fbc	-0.034530386
103	0xbc614897	-0.013750217
104	0x3c62b635	0.013837387
105	0x3d7beee4	0.06150712
106	0x3aee9732	0.0018203019
107	0xbd348f58	-0.044082016
108	0x3d54735f	0.05186784
109	0xbd35877c	-0.04431866
110	0xbc2fa468	-0.01072035
111	0x3d09a9f9	0.033609364
112	0x3d5971c4	0.05308701
113	0xbd7306db	-0.05933271
114	0x3d0be62a	0.03415505
115	0xbc9ac691	-0.018893512
116	0xbc807968	-0.015682891
117	0x3c4515f3	0.012029159
118	0x3ce9793d	0.028500194
119	0xbbeb1dc0	-0.0071751773
120	0xbceed879	-0.029155957
121	0x3c519efe	0.012794254
122	0x3c124940	0.008928597
123	0xbc90f437	-0.017694576
124	0x3c3879ee	0.011259539
125	0xbd522627	-0.051305916
126	0xbd694f54	-0.05696042
127	0xbd1047fd	-0.035224903
128	0x3b3c1d9c	0.0028704172
129	0xbcf91399	-0.030404853
130	0x3cf8300c	0.030296348
131	0xbd43d96f	-0.047814783
132	0x3d7ca4cd	0.061680604
133	0x3cb0556f	0.021525113
134	0xbd39b482	-0.04533816
135	0x3d6621d3	0.0561846
136	0xbd104319	-0.03522024
137	0x3d5a1800	0.053245544
138	0x3d55061c	0.05200778
139	0xbd3c4210	-0.04596144
140	0x3cc9e5e8	0.02464576
141	0xbbc0abff	-0.0058798785
142	0xbd30c6e5	-0.04315843
143	0x3d1ba7e3	0.038001906
144	0x3cfefe8d	0.031127239
145	0x3d498f0c	0.049208686
146	0x3d3475ef	0.044057783
147	0x3d872576	0.06598942
148	0xbd17f24e	-0.037096314
149	0xbd1da677	-0.03848883
150	0xbc4f1f5d	-0.012641755
151	0x3d6e9e22	0.058256276
152	0x3d408377	0.047000375
153	0x3bd6e5f0	0.0065581724
154	0xbd6e5cd9	-0.058194015
155	0x3d0d752e	0.03453558
156	0x3d6cfe60	0.05785978
157	0xbc382460	-0.011239141
158	0x3be6f90e	0.0070487326
159	0xbb6e5037	-0.003636373
160	0x3c3b9830	0.011449859
161	0x3cfe9409	0.031076448
162	0xbd7d9335	-0.061907966
163	0xbafec9dd	-0.0019438822
164	0xbcf8b133	-0.030357933
165	0xbc090596	-0.008363148
166	0x3d1b408e	0.03790336
167	0x3d106fd4	0.035262898
168	0x3c708aa9	0.014681497
169	0xbcd342a4	-0.025788613
170	0x3bd86ca5	0.0066047483
171	0xb93fe184	-0.0001829919
172	0xba9524f6	-0.0011378813
173	0xbd4141d6	-0.047181927
174	0x3d5d63e8	0.054050356
175	0xbd02d6f9	-0.031943295
176	0xbd457034	-0.04820271
177	0xbbd5fd3f	-0.0065304334
178	0xbc1128df	-0.008859842
179	0xbcdba6c1	-0.026812913
180	0xbcaa1fc2	-0.020767096
181	0xbd2c1201	-0.042009357
182	0xbd53ce41	-0.05171037
183	0xba24824b	-0.00062755187
184	0xba3c9c48	-0.00071949186
185	0xbd5f7cc2	-0.054562338
186	0x3d32c7c1	0.04364753
187	0xbd0b1c97	-0.033962812
188	0x3d1846f7	0.037177052
189	0x3d185017	0.037185755
190	0xbbc43613	-0.0059878915
191	0xbcce1001	-0.025154116
192	0x3ca76000	0.020431519
193	0xbd55095a	-0.05201087
194	0xbcdf949a	-0.027292538
195	0xbc1b8b57	-0.00949367
196	0xbd31da78	-0.04342124
197	0xbc31d915	-0.010854979
198	0xbb9183b0	-0.004440747
199	0x3d074325	0.03302302
200	0x3bf99fd8	0.007617932
201	0x3d3a31e1	0.045457724
202	0x3c9a6730	0.018848032
203	0xbd2b68c5	-0.041847963
204	0xbd00f71b	-0.03148566
205	0xbca0dedd	-0.01963752
206	0x3d259a36	0.04043027
207	0xbcbc9f00	-0.023025036
208	0xbcb42bb0	-0.021993488
209	0x3c443805	0.011976247
210	0x3ccd3294	0.025048532
211	0xbc91a715	-0.017779866
212	0xbc304083	-0.010757568
213	0x3d0a54b6	0.033772193
214	0xbcff735d	-0.03118294
215	0x3d97c34e	0.07410298
216	0xbd211c84	-0.039333835
217	0xbd360abd	-0.044443835
218	0x3d0817be	0.033225767
219	0xbcfbe879	-0.0307505
220	0xbd23d695	-0.039999563
221	0x3c5ee365	0.01360402
222	0x3cf336b9	0.02968918
223	0xbcf60d4b	-0.030035635
224	0xbc6bd1a7	-0.014393247
225	0xbcc49184	-0.023995169
226	0x3d35dbb6	0.044398986
227	0x3d142001	0.036163334
228	0x3d33b722	0.04387582
229	0x3d81e31a	0.06342144
230	0x3d71c70a	0.05902771
231	0x3d5b4f4b	0.053542417
232	0xbcbc68a4	-0.022999115
233	0x3bb686ef	0.0055702846
234	0xbbfa71c1	-0.007642955
235	0x3bda9323	0.006670372
236	0xbc0b7190	-0.008510962
237	0xbab0b00c	-0.00134802
238	0xbd682acf	-0.05668145
239	0x3cb03442	0.021509293
240	0xbd623d0e	-0.055234008
241	0x3abbc601	0.0014325978
242	0xbc7df801	-0.015501023
243	0xbc30b675	-0.010785689
244	0xbc98a30a	-0.01863243
245	0x3d508440	0.050907373
246	0xbc9b538d	-0.018960739
247	0x3cfda5f7	0.030962927
248	0xbcf1dd4d	-0.02952447
249	0x3d860640	0.06544161
250	0x3c5c8f87	0.013461954
251	0x3d1091c4	0.035295263
252	0xbd4493c6	-0.04799249
253	0x3c8ac6e8	0.016940549
254	0xbd550516	-0.052006803
255	0xbcfd7d94	-0.03094367

seq.0.bias f4 [256]
0	0x3d0900dd	0.03344809
1	0xbd216787	-0.039405372
2	0x3cede9a5	0.029042074
3	0xbb5c64f2	-0.0033629504
4	0xbcb185d7	-0.021670265
5	0x3ce35916	0.02775244
6	0x3c53f13f	0.0129359355
7	0x3cc50627	0.024050785
8	0xbd44531a	-0.047930814
9	0x3b7046d3	0.0036663308
10	0xbd8952d0	-0.06705248
11	0xbd357489	-0.04430059
12	0x3d02d212	0.03193862
13	0xbd043ad6	-0.032282673
14	0xbbb543fe	-0.005531787
15	0xbd422ed7	-0.04740795
16	0x3d0b114e	0.03395205
17	0xbc43e583	-0.011956575
18	0xbb538871	-0.003227737
19	0x3cbf6ae5	0.023366401
20	0x3bd3e554	0.006466547
21	0x3affbf4c	0.0019511967
22	0xbcfaad66	-0.030600261
23	0xbd652a9e	-0.055948846
24	0x3c3976eb	0.011319856
25	0xbc3f125d	-0.011662093
26	0x3cf09ea5	0.029372523
27	0xbd38a318	-0.045077413
28	0x3d571f48	0.052520066
29	0x3c7c1d4f	0.015387847
30	0xbbd68dac	-0.0065476503
31	0xbd21b359	-0.03947768
32	0xbcba19f7	-0.02271746
33	0xbbb269b4	-0.0054447297
34	0x3ce33ca0	0.02773887
35	0xbb17c34d	-0.002315718
36	0x3cba111f	0.022713242
37	0xbd354782	-0.04425765
38	0x3d3dd90e	0.046349578
39	0x3c187444	0.009305064
40	0x3c610c01	0.013735772
41	0x3d47ff18	0.04882726
42	0x3d8406f8	0.06446642
43	0xbd28e0db	-0.041230064
44	0x3c3e990b	0.011633168
45	0x3d14ef5f	0.036361095
46	0x3b992055	0.0046730437
47	0xbc62c683	-0.013841274
48	0xbd2d6516	-0.04233273
49	0xbd10dd4f	-0.035367306
50	0x3c8c9571	0.017161103
51	0xbd4ffed4	-0.050780132
52	0x3c7b881a	0.015352273
53	0xbd45f99e	-0.048333757
54	0xbc2c2333	-0.010506439
55	0xbb0d3362	-0.002154552
56	0xbb878bb7	-0.0041365284
57	0xbc4965a7	-0.012292302
58	0x3d3c6f60	0.046004653
59	0xbd193d03	-0.0374117
60	0xbd19a9e8	-0.03751555
61	0x3d7181df	0.058961745
62	0xbc2cfdbf	-0.010558545
63	0x3d872a92	0.065999165
64	0xbc795450	-0.015217856
65	0x3c42546e	0.01186095
66	0xbd3410bd	-0.043961275
67	0x3c8bc2b4	0.017060615
68	0xbc312ef5	-0.010814418
69	0xbc749ae9	-0.014929512
70	0x3cfbb3c0	0.03072536
71	0xbd2bda10	-0.041956007
72	0xbd3001fe	-0.04297065
73	0xbca98023	-0.020690983
74	0xbd41b8e5	-0.04729547
75	0x3c464303	0.012100938
76	0x3d6dae1f	0.058027383
77	0x3cefdeed	0.029281104
78	0xbd11eaf9	-0.035624478
79	0xbcf959a8	-0.03043826
80	0xbcaf0b01	-0.021367552
81	0x3d33c25f	0.04388654
82	0x3cfd6adb	0.030934742
83	0x3d0b1fd0	0.033965886
84	0x3cdbabc5	0.026815305
85	0xbc37238b	-0.011177908
86	0x3d32ba20	0.043634534
87	0x3d2e0899	0.042488668
88	0xbd09b0a4	-0.033615723
89	0x3c915dc9	0.017744916
90	0x3d5b5775	0.053550202
91	0x3b019d57	0.001977762
92	0xbd3a3b5c	-0.045466766
93	0xbd15d64d	-0.036581326
94	0xbc07d0ed	-0.008289558
95	0xbca964f9	-0.02067803
96	0xbc066219	-0.008202099
97	0x3d059a69	0.03261796
98	0x3c673614	0.014112014
99	0x3c382242	0.011238636
100	0x3c374268	0.011185266
101	0x3d1dedfc	0.038557038
102	0xbd253999	-0.040338133
103	0x3d5a8b64	0.05335559
104	0xbc958804	-0.018253334
105	0xbb5715cf	-0.0032819395
106	0x3ca1bc0c	0.019742988
107	0xbc0cff88	-0.008605845
108	0xbbcb442d	-0.0062031955
109	0xbd6f229d	-0.05838262
110	0xbd0ebb47	-0.03484657
111	0xbcdd0e83	-0.026984459
112	0xbd6ac72b	-0.057318848
113	0x3d27a8e8	0.040932566
114	0xbcb8ff15	-0.02258257
115	0x3ca0c894	0.019626893
116	0x3d6475ff	0.055776592
117	0xbbe3844b	-0.006943261
118	0xbc8386d2	-0.016055498
119	0x3d77d894	0.06050928
120	0x3d12db04	0.0358534
121	0x3bce8182	0.0063020596
122	0xbc7d1d1d	-0.015448836
123	0xbd02e3a5	-0.03195538
124	0xbcbc9b68	-0.023023322
125	0x3d2aff7f	0.041747566
126	0xbd01b16a	-0.031663336
127	0xbc65142f	-0.013981863
128	0x3d1b3181	0.037889007
129	0xbc8bf6d7	-0.017085476
130	0xbad012f6	-0.0015874791
131	0x3cdd0e27	0.026984287
132	0xbcc047b7	-0.023471696
133	0x3cf44613	0.02981857
134	0x3cb75f0f	0.022384195
135	0x3d6be0d7	0.05758747
136	0xba64cd30	-0.0008728085
137	0x3b4e34f8	0.0031464677
138	0x3d177718	0.03697881
139	0x3d5bcfe4	0.053665057
140	0xbd492c83	-0.049114715
141	0xbd1dc642	-0.03851915
142	0x3d054b42	0.032542475
143	0x3bb3977a	0.005480704
144	0x3a8d35a6	0.0010773435
145	0xbd1a07a6	-0.03760495
146	0xbcab6b36	-0.020925146
147	0xbbd9e110	-0.006649144
148	0xbc6364fc	-0.013879057
149	0xbcefd95d	-0.029278452
150	0x3b89c26e	0.004204086
151	0x3d177670	0.036978185
152	0x3d6db5e1	0.05803478
153	0x3c4aee39	0.012385898
154	0xbd3b8c78	-0.04578826
155	0x3c44fd75	0.0120233195
156	0x3cca3d81	0.02468753
157	0x3cbe34e6	0.023218583
158	0xbc17c50c	-0.009263288
159	0xbd40fefe	-0.04711818
160	0x3d569cf6	0.052395783
161	0x3c5bd1a8	0.013416685
162	0xbb712ace	-0.0036799195
163	0xbbaacda7	-0.005212504
164	0x3d17e093	0.037079405
165	0x3b2c7e52	0.002632041
166	0x3b29ad52	0.002589066
167	0xbd5a1702	-0.0532446
168	0xbd2b708c	-0.04185538
169	0xbc6e9373	-0.014561522
170	0x3d55207d	0.052032936
171	0x3d3ae9d6	0.04563316
172	0x3c18b4a0	0.009320408
173	0xbd1e3f38	-0.03863451
174	0xbc8b7b1e	-0.01702648
175	0xbc12d362	-0.00896153
176	0x3ce1fcce	0.027586367
177	0x3d892c48	0.06697899
178	0xbb021309	-0.0019847772
179	0xbc84e8ec	-0.016224347
180	0xbd31da53	-0.0434211
181	0xbd62a4eb	-0.05533306
182	0xbcf8b139	-0.030357944
183	0xbc0551d2	-0.008137183
184	0x3d6ec862	0.05829657
185	0xbcae643a	-0.021288026
186	0xbd6d551c	-0.057942495
187	0x3d80c3dc	0.06287357
188	0x3c9240a6	0.017853092
189	0xbd3dd885	-0.046349067
190	0x3d59441c	0.05304347
191	0x3d0af37e	0.03392362
192	0xbcabc93f	-0.020969985
193	0xbcd77c9d	-0.026304537
194	0x3d202028	0.039093167
195	0xbb366456	-0.00278308
196	0x3ca7a293	0.020463264
197	0x3d711ccb	0.05886535
198	0xbd79ad7b	-0.06095646
199	0x3d39a6a9	0.045324955
200	0x3d3eb831	0.046562377
201	0xbd46a1dc	-0.048494205
202	0xbd333cc5	-0.043759126
203	0xbd5df8a1	-0.05419219
204	0x3cc23f11	0.023711713
205	0x3d0349b6	0.032052718
206	0xbc82f61a	-0.015986491
207	0xbd88f122	-0.066866174
208	0xbc4ece32	-0.012622403
209	0xbd576e8a	-0.052595653
210	0x3cd5cd95	0.026099006
211	0xbc7a63e6	-0.015282607
212	0x3c92eb95	0.0179346
213	0xbd1a3323	-0.037646424
214	0xbc4bf993	-0.01244964
215	0xbd64300c	-0.055709884
216	0xbd715be7	-0.058925536
217	0xbc6ec539	-0.014573389
218	0x3cffe022	0.031234805
219	0xbcc01f42	-0.023452405
220	0xbc4c0609	-0.012452611
221	0x3d432d7d	0.047650803
222	0xbd220ef6	-0.03956505
223	0xbcc3defc	-0.023910038
224	0x3d541da2	0.051786073
225	0x3c80a539	0.015703784
226	0xbcd4039f	-0.025880633
227	0xbb8bd965	-0.004267859
228	0xb8bdd49a	-9.0518224e-05
229	0x3d1784a9	0.03699175
230	0x3d6b553d	0.057454336
231	0xbc588df0	-0.013217434
232	0x3caa5cd5	0.020796219
233	0xbc56fb98	-0.013121508
234	0xbc3fb957	-0.011701903
235	0xbd30ae5c	-0.043135032
236	0x3cfcff92	0.030883584
237	0x3d3f84c0	0.04675746
238	0xbd614f5f	-0.055007335
239	0x3cb80015	0.022460977
240	0xbd02c3f0	-0.03192514
241	0xbc6b4c08	-0.014361389
242	0xbd26c9b7	-0.040719714
243	0x3d4415ee	0.047872476
244	0x3c13c261	0.0090185115
245	0x3d587d68	0.05285397
246	0xba65d352	-0.0008767146
247	0xbbb0960e	-0.0053889817
248	0x3ab416a5	0.0013739659
249	0xbce8e00c	-0.028427146
250	0x3ba401c8	0.005005095
251	0xbbd408cf	-0.0064707766
252	0x3c331407	0.010930068
253	0xbca2c70f	-0.01987031
254	0xbaa89dbf	-0.0012864395
255	0x3ce12f25	0.0274883

seq.1.weight f4 [64, 256]
0	0xbd8af526	-0.067850396
1	0x3d543a90	0.051813662
2	0x3d10c02e	0.035339527
3	0xbcdd060c	-0.026980422
4	0x3b9dfa5e	0.004821106
5	0x3d210a19	0.03931627
6	0xbd257536	-0.040394984
7	0x3d3dd927	0.04634967
8	0xbd3a82de	-0.04553496
9	0xbd0febfe	-0.03513717
10	0x3bb04ff8	0.005380627
11	0xbd331c51	-0.043728177
12	0x3d8d4719	0.068983264
13	0x3d0ad84e	0.03389769
14	0xbd23648b	-0.039890807
15	0xbcf01611	-0.029307397
16	0xbd323e33	-0.04351635
17	0x3b8aedd9	0.0042397794
18	0x3cb2ce6e	0.021826949
19	0x3c0b1b32	0.008490371
20	0x3d25a0c6	0.04043653
21	0xbd81998e	-0.06328116
22	0x3cfc3540	0.03078711
23	0x3d488088	0.048950702
24	0x3d01b818	0.031669706
25	0x3d36ccad	0.044628788
26	0xbc874310	-0.01651147
27	0x3d041c36	0.032253467
28	0xbd6859ce	-0.05672627
29	0x3d657e29	0.05602852
30	0x3aafe786	0.001342044
31	0x3ce9fd70	0.028563231
32	0x3ce1618c	0.027512334
33	0xbd5706eb	-0.052496832
34	0x3d09e09c	0.03366147
35	0xbd202a6e	-0.039102964
36	0xbca1728d	-0.019707942
37	0x39965368	0.00028672372
38	0x3d77916d	0.060441423
39	0xbcdd7f58	-0.027038261
40	0x3dc2a967	0.09504967
41	0x3d73208e	0.05935722
42	0x3d4fb13a	0.050706126
43	0x3bc91e25	0.0061376267
44	0x3bcc661f	0.0062377597
45	0x3cca3f3f	0.024688361
46	0x3c1017ba	0.008794719
47	0x3ba0ce53	0.0049074083
48	0xbc4aa002	-0.01236725
49	0x3d9da9e2	0.07698418
50	0x3d8ad44f	0.06778776
51	0xbbc993d8	-0.0061516576
52	0x3b1ef77e	0.0024256404
53	0x3d3f65fb	0.046728116
54	0x3d1abe03	0.037778866
55	0x3c813280	0.01577115
56	0xbd0d4a8a	-0.034494914
57	0xbb2bd70d	-0.002622071
58	0xbd110e90	-0.03541428
59	0xbd68cbe8	-0.056835085
60	0xbd2727fc	-0.040809616
61	0xbcf6dac7	-0.030133618
62	0xbd47fbbb	-0.048824053
63	0x3d06f814	0.03295143
64	0xbd389a35	-0.04506894
65	0xbbb5e387	-0.005550805
66	0xbd3198c8	-0.043358594
67	0xbd329901	-0.043602947
68	0xbd830d1a	-0.06398983
69	0x3c066c3d	0.008204517
70	0x3ceb3538	0.0287119
71	0xbca31034	-0.019905187
72	0xbb6d1d74	-0.0036180886
73	0xbc121b52	-0.0089176465
74	0xbd74233e	-0.059603922
75	0xbd0e5cce	-0.034756474
76	0x3c7baf4b	0.015361617
77	0x3d119010	0.03553778
78	0x3d0f8eb9	0.03504822
79	0x3cdc876c	0.026920043
80	0xbd043ced	-0.032284666
81	0xbb9f3b34	-0.0048593525
82	0x3cae0779	0.021243798
83	0xbd576b99	-0.052592847
84	0xbd5d33d2	-0.054004498
85	0xbd557671	-0.052114908
86	0x3cf514ac	0.029917084
87	0x3d875981	0.066088684
88	0xbcc804e1	-0.024416389
89	0x3d04081e	0.032234304
90	0x3d22a265	0.039705653
91	0x3d1195db	0.035543304
92	0x3ce16588	0.027514234
93	0xbd384441	-0.044986967
94	0xbd4473c9	-0.047961984
95	0x3b81fe81	0.003967107
96	0x3d1b9de4	0.037992373
97	0x3ca4d17f	0.020119427
98	0x3cd0ba41	0.025479438
99	0xbd13f580	-0.0361228
100	0x3d76cd87	0.0602546
101	0xbace6a6b	-0.0015748268
102	0xbb015e96	-0.0019740216
103	0xbd2f9288	-0.042864352
104	0x3d7f6e15	0.06236084
105	0xbcae47e4	-0.021274514
106	0xbd9f71f6	-0.07785408
107	0x3d565493	0.05232675
108	0xbd0c629e	-0.034273736
109	0xbd834cb8	-0.06411117
110	0x3d2c56c4	0.042074934
111	0x3c8757bd	0.016521329
112	0x3d492d0c	0.049115226
113	0x3ca8857d	0.020571465
114	0xbd860944	-0.06544736
115	0x3c5f5c2a	0.0136328135
116	0x3ce640ec	0.028107129
117	0x3ad08434	0.001590854
118	0x3d58d089	0.05293325
119	0xbd38e597	-0.04514083
120	0x3c82c354	0.01596228
121	0x3d58d213	0.052934717
122	0xbc25c8f8	-0.010118715
123	0x3d569122	0.052384503
124	0xbd560110	-0.052247107
125	0x3cc279db	0.023739746
126	0xbb6edd19	-0.0036447702
127	0x3d18dbc5	0.037318964
128	0x3c9a168c	0.01880958
129	0x3cada350	0.021196038
130	0xbd82fbea	-0.06395705
131	0xbd015441	-0.03157449
132	0xbd772dfc	-0.06034659
133	0xbd0d8281	-0.034548286
134	0xbca8d554	-0.020609535
135	0xbc2b2789	-0.010446438
136	0x3c2063b4	0.009789396
137	0xbd6260b6	-0.055268012
138	0x3d3e74ec	0.046498224
139	0xbd448eb5	-0.04798766
140	0x3c793ca8	0.0152122155
141	0x3d229291	0.039690558
142	0x3ce0bc55	0.027433554
143	0xbd0dddc0	-0.034635305
144	0xbd1a8f38	-0.03773424
145	0x3c2e6f32	0.010646628
146	0x3d61f6d2	0.055167027
147	0xbd3d1df0	-0.04617113
148	0xbd707896	-0.05870875
149	0xbd56fd37	-0.05248758
150	0xbd06c8a1	-0.03290618
151	0xbd251ff9	-0.040313695
152	0x3d5bf9b5	0.053704936
153	0x3d1654b7	0.036701884
154	0x3d5aaa47	0.053385045
155	0xbc90f2b0	-0.017693847
156	0xbd7b8552	-0.06140644
157	0xbb57c792	-0.003292535
158	0x3c23f01b	0.010005976
159	0xbd409150	-0.04701358
160	0x3d97e8c2	0.07417442
161	0xbd0f237f	-0.03494596
162	0xbd2581a4	-0.040406838
163	0xbd84e992	-0.064898625
164	0x3d606fd6	0.054794155
165	0x3d43d2c1	0.047808412
166	0x3d4585f3	0.048223447
167	0xbcddeb0e	-0.027089622
168	0x3dad4558	0.08460492
169	0xbd22fdbf	-0.039792772
170	0x3d3310d4	0.04371722
171	0x3ce592fb	0.028024187
172	0x3db0acb6	0.08626692
173	0xbd135e8f	-0.03597885
174	0xbd2eb49b	-0.042652708
175	0xbb990d6a	-0.0046707885
176	0x3c82e7b4	0.015979625
177	0x3ca501e0	0.020142496
178	0xbd0d85d3	-0.034551453
179	0xbcd1d90f	-0.025616197
180	0xbd001025	-0.031265397
181	0xbd74d9ce	-0.059778027
182	0xbc31179b	-0.010808851
183	0x3ce168b1	0.027515741
184	0xbbad54a1	-0.0052896296
185	0xbc5edc3e	-0.0136023145
186	0x3cdaa986	0.026692163
187	0xbc8211ce	-0.01587763
188	0x3d37cf89	0.044875655
189	0xbcf641bc	-0.030060641
190	0xbd71f05f	-0.059067126
191	0xbc6aab76	-0.014323106
192	0x3bb50817	0.005524646
193	0xbd6b6a76	-0.057474576
194	0x3ca4e995	0.020130912
195	0x3d3147f2	0.043281503
196	0x3d4e4366	0.050357245
197	0xbd4566a4	-0.04819359
198	0xbd89ce84	-0.06728843
199	0xbd7b29fd	-0.06131934
200	0x3c8a1a2a	0.01685818
201	0xbb98de9c	-0.004665209
202	0x3d1c2498	0.038120836
203	0x3c9c5dd6	0.019087713
204	0xbce4cfb2	-0.027931068
205	0x3c88f6e4	0.01671929
206	0x3d310d2b	0.04322545
207	0x3c703b66	0.014662599
208	0xbd456a7d	-0.04819726
209	0xbbcf2b4d	-0.0063223005
210	0x3ca523cb	0.020158669
211	0xbbb66c32	-0.005567097
212	0x3d2e9443	0.042621862
213	0xbd735817	-0.05941018
214	0xbd2a54d7	-0.041584816
215	0x3caa6c6f	0.020803658
216	0xbd929976	-0.071581766
217	0x3d0ec808	0.034858733
218	0x3d0b7f1a	0.03405676
219	0xbc505c36	-0.012717297
220	0xbb14f6a5	-0.002273002
221	0xbd268568	-0.04065457
222	0x3c7f3e97	0.015578887
223	0xbd152f01	-0.03642178
224	0x3d09d292	0.03364808
225	0x3d14281c	0.036171064
226	0xbd6806d1	-0.056647126
227	0x3d4c502e	0.049881153
228	0xbd86e309	-0.06586272
229	0x3b3bf3bf	0.002867922
230	0x3c8d9e4c	0.017287396
231	0x3d559a29	0.05214897
232	0x3d72e7fd	0.059303273
233	0xbcca6578	-0.024706587
234	0xbbf9b2c5	-0.007620188
235	0x3ccc9bcb	0.024976632
236	0x3d563659	0.052297924
237	0xbd182420	-0.037143826
238	0x3d64c917	0.055855837
239	0xbc9f7b5c	-0.019468002
240	0xbd8c9ee2	-0.06866242
241	0x3cbdf10a	0.023186225
242	0x3c8d1139	0.017220126
243	0xbd6ca777	-0.057776894
244	0xbd927ade	-0.07152341
245	0xbd323852	-0.043510742
246	0xbcf3a6fe	-0.029742714
247	0x3d5fb6b8	0.054617614
248	0xbcffbd66	-0.031218242
249	0xbca64a30	-0.020299047
250	0xbd1bcaf9	-0.038035367
251	0xbcfb47ac	-0.030673824
252	0x3c01dca1	0.007926137
253	0x3c686777	0.014184824
254	0x3d41f5af	0.047353443
255	0x3c668171	0.014068947

seq.1.bias f4 [64]
0	0xbd2625a8	-0.040563256
1	0x3b890891	0.0041819294
2	0x3c5dc52f	0.013535782
3	0xbd63e431	-0.055637542
4	0x3ce3b226	0.027794909
5	0x3cfceb7f	0.030874012
6	0xbc33e9ac	-0.010981005
7	0xbc7c4189	-0.015396484
8	0x3d4ee3f7	0.050510373
9	0x3c93128e	0.017953184
10	0x3d39ae51	0.045332257
11	0x3d8bac09	0.068199225
12	0x3d8b07fa	0.06788631
13	0x3cf16884	0.029468782
14	0x3d7dc39a	0.06195412
15	0x3ca867cd	0.020557309
16	0x3d7542b6	0.059878074
17	0xbbfcf1dc	-0.0077192616
18	0x3d214b2f	0.03937834
19	0x3d5ae803	0.05344392
20	0xbccd3e98	-0.025054261
21	0xbd5da943	-0.0541165
22	0x3b9e50d2	0.004831412
23	0x3bd6afcb	0.006551718
24	0x3ca9edd2	0.020743284
25	0x3c94a2c3	0.018144017
26	0xbc44c52e	-0.012009902
27	0x3bb5d7b1	0.005549394
28	0xbd1208f6	-0.035653077
29	0x3d7edbb6	0.06222125
30	0x38a3d040	7.811235e-05
31	0x3d1b9667	0.03798523
32	0xbcf051c4	-0.029335864
33	0x3ceb8c12	0.028753314
34	0x3d130b0c	0.035899207
35	0x3d9d710a	0.07687576
36	0x3b455e93	0.0030116185
37	0x3c340897	0.010988376
38	0xbd1f738c	-0.038928553
39	0x3d3ab386	0.045581363
40	0x3d70baa5	0.058771748
41	0x3d277b50	0.040889084
42	0xbc22b02b	-0.009929697
43	0x3d10a8b8	0.035317153
44	0x3d90e231	0.070743926
45	0x3d971624	0.0737727
46	0xbce3a90f	-0.027790574
47	0x3d1f1998	0.038842767
48	0x3ca9fcbe	0.0207504
49	0xbd14e422	-0.036350377
50	0x3d83b9ea	0.06431945
51	0xbaf104d6	-0.0018388282
52	0xbc90d397	-0.017679019
53	0x3d580836	0.052742206
54	0x3d3a9229	0.045549545
55	0xbc9f92ba	-0.019479144
56	0xbc91f91e	-0.017818984
57	0xbc71361f	-0.014722376
58	0x3b0bec02	0.0021350388
59	0xbd402e5b	-0.046919208
60	0xbd523619	-0.051321123
61	0x3d5106f6	0.05103203
62	0xbac8562e	-0.0015284473
63	0x3d11f907	0.03563788

seq.3.weight f4 [8, 64]
0	0xbe1c7711	-0.15279795
1	0x3bac80fd	0.0052644
2	0x3e017cb9	0.12645234
3	0xbca02753	-0.019550001
4	0xbdea76c9	-0.11448438
5	0xbd7a821e	-0.061159246
6	0x3dfdc9b8	0.123919904
7	0xbd846b98	-0.064658344
8	0xbb270e95	-0.002549087
9	0x3dd1c8b5	0.1024336
10	0xba0de7ec	-0.0005413282
11	0xbdd6da95	-0.1049091
12	0x3e0b20ae	0.13586685
13	0xbdf64ba9	-0.1202615
14	0x3d2d1aa8	0.04226175
15	0x3e003fef	0.12524389
16	0xbc787817	-0.01516535
17	0xbdb39e7c	-0.08770463
18	0xbc4904d5	-0.012269218
19	0x3df92add	0.12166379
20	0xbdb1e56f	-0.08686339
21	0xbdaab4df	-0.0833528
22	0x3e0333a4	0.12812668
23	0xbde1734f	-0.110083215
24	0x3db2577f	0.08708095
25	0xbcb9bc2c	-0.022672735
26	0xbdde35f8	-0.108501375
27	0x3cae2ceb	0.021261653
28	0xbdc41861	-0.095749624
29	0x3da0f8a1	0.07859922
30	0x3dd76042	0.105164066
31	0xbdb281d8	-0.08716172
32	0x3cc4cd91	0.024023803
33	0x3d89f0ed	0.06735406
34	0xbdafcc32	-0.08583869
35	0x3da6dfb2	0.08148135
36	0x3e061898	0.1309532
37	0xbd96928b	-0.073521696
38	0x3d09140c	0.033466384
39	0xbd6ca428	-0.05777374
40	0xbda75cd4	-0.081720024
41	0x3cbcfba0	0.023069203
42	0x3d5fea86	0.05466702
43	0xbd6bfdc0	-0.05761504
44	0x3bb3dc8a	0.005488937
45	0x3dd06234	0.10174981
46	0xbcff90cc	-0.031196974
47	0xbdc3d609	-0.09562308
48	0x3ccf72d8	0.025323316
49	0xbd7593ff	-0.059955593
50	0x3d398bbf	0.045299288
51	0x3d3a3c16	0.04546746
52	0xbe0c031b	-0.1367306
53	0x3d7f6ad3	0.062357735
54	0xbd47945b	-0.048725467
55	0xbdfca39f	-0.12335896
56	0x3d7601a0	0.060060143
57	0x3d9ceb03	0.076620124
58	0xbe15cff5	-0.1463011
59	0xbd6ac639	-0.057317946
60	0x3ba65ce9	0.0050769937
61	0x3da1e521	0.07905031
62	0x3b2c0044	0.0026245276
63	0x3d9f1f58	0.0776965
64	0x3d064fe0	0.03279102
65	0xbe0c8759	-0.13723506
66	0xbdf5340c	-0.11972818
67	0xbca0dc67	-0.019636346
68	0xbd40175e	-0.046897285
69	0xbdd5b840	-0.104355335
70	0xbd9a4c83	-0.07534125
71	0xbd37f3b5	-0.04491015
72	0xbadd4636	-0.0016881886
73	0x3db83097	0.08993643
74	0xbd0108a1	-0.03150237
75	0x3db674d4	0.08909002
76	0xbd775867	-0.06038704
77	0x3de85d0a	0.11345871
78	0x3bcd3e3a	0.0062635215
79	0x3d5ce37b	0.05392788
80	0x3d56234d	0.05227976
81	0x3d21cd80	0.03950262
82	0xbe08d930	-0.133641
83	0x3e18bedb	0.14916556
84	0xbdb81f1d	-0.089903094
85	0x3e019189	0.12653174
86	0xbdc053c6	-0.093909785
87	0xbb7b294a	-0.003832417
88	0xbe0302b6	-0.12794003
89	0xbd81623e	-0.06317566
90	0xbbc91aff	-0.0061372514
91	0xbdf271df	-0.118381254
92	0x3da12dc4	0.07870057
93	0xbd1534b0	-0.0364272
94	0xbe0c6f24	-0.13714272
95	0xbdd6a1d2	-0.104800835
96	0x3d88fd8a	0.06688984
97	0xbd908def	-0.07058322
98	0xbce686e7	-0.028140498
99	0xbd382b76	-0.044963323
100	0xbe13dd95	-0.14439996
101	0xbdc99690	-0.09843171
102	0xbd8a53d4	-0.0675427
103	0xbd17d7e6	-0.03707113
104	0xbd44b553	-0.048024487
105	0x3d2ec70a	0.042670287
106	0x3d8a06f2	0.06739606
107	0x3dd138ad	0.10215888
108	0x3cfe60e8	0.031052068
109	0xbdbdd717	-0.09269541
110	0x3e165168	0.14679492
111	0xbd6b73c4	-0.05748345
112	0x3e0a37c1	0.13497831
113	0xbd612217	-0.05496415
114	0xbde94ba8	-0.113913834
115	0x3e090f68	0.13384783
116	0x3de82bb1	0.113364585
117	0xbce56237	-0.028000934
118	0xbc4c2fe2	-0.012462588
119	0xbddba46f	-0.107247226
120	0xbdf78907	-0.12086683
121	0x3e042131	0.12903287
122	0xbdddb928	-0.108263314
123	0x3d25da54	0.040491417
124	0xbd80eb4f	-0.062948816
125	0x3adfce08	0.0017074952
126	0x3d8662a7	0.06561785
127	0x3d1d2f0d	0.03837495
128	0x38f6e73e	0.00011773266
129	0xbc5d8842	-0.013521256
130	0x3d891ce5	0.06694964
131	0x3d243c14	0.040096357
132	0x3d774b55	0.060374577
133	0x3d8f56ec	0.06999001
134	0xbd9e3c75	-0.07726375
135	0x3d890e30	0.06692159
136	0x3e0b15cb	0.13582532
137	0x3cbaa227	0.022782398
138	0x3de86435	0.11347238
139	0x3d8e0d1e	0.06936096
140	0xbde69a19	-0.112598605
141	0xbe179621	-0.14803363
142	0xbd75ab7b	-0.05997799
143	0xbd89dbac	-0.06731352
144	0x3d2e8a10	0.042612135
145	0x3d5a9776	0.0533671
146	0x3de6d896	0.11271779
147	0xbdc7bf24	-0.09753254
148	0xbda80bc8	-0.08205372
149	0xbdc488d0	-0.095964074
150	0x3dc40d43	0.09572842
151	0x3d629389	0.05531648
152	0xbe01e664	-0.12685543
153	0xbdac5fc7	-0.084167056
154	0x3dbf002b	0.09326204
155	0xbd66f1d1	-0.056382958
156	0x3db0243a	0.0860066
157	0x3cc20c36	0.023687463
158	0xbd7ff94c	-0.062493607
159	0x3d9fcfe7	0.07803326
160	0x3c7a3787	0.015272028
161	0x3c9f082a	0.019413073
162	0xbaee8659	-0.0018197998
163	0x3bc87cbf	0.0061183865
164	0x3e02ab93	0.12760763
165	0x3d4defa6	0.050277375
166	0xbdf853e7	-0.12125378
167	0xbdeaf3c9	-0.114722796
168	0x3c8e0df6	0.017340641
169	0x3d80936f	0.06278121
170	0x3ddc0695	0.10743443
171	0x3d1a7c9e	0.0377165
172	0x3e09a564	0.13441998
173	0xbe14e05b	-0.1453871
174	0xbbaf2174	-0.005344564
175	0xbd5fc187	-0.05462792
176	0xbccf4b33	-0.025304412
177	0xbda8f018	-0.08248919
178	0x3d0c6a5a	0.034281112
179	0x3e04a250	0.12952542
180	0xbcf563e6	-0.029954862
181	0x3d51041b	0.051029306
182	0xbd7c42ba	-0.061587073
183	0xbdbcfb80	-0.09227657
184	0x3dd393f3	0.103309534
185	0xbce01f98	-0.027358815
186	0x3cb5c1e9	0.02218719
187	0x3e0a1498	0.13484418
188	0x3d5d68a0	0.054054856
189	0x3d6ad029	0.057327423
190	0x3d6f04d5	0.058354218
191	0xbde566da	-0.11201258
192	0xbe11d1ce	-0.1424019
193	0xbe04a44e	-0.12953302
194	0xbda1568e	-0.07877837
195	0xbdd211ae	-0.102572784
196	0x3dba67bd	0.09101818
197	0xbc5a6a8b	-0.013331066
198	0xbc3859f7	-0.011251918
199	0xbdc78444	-0.097420245
200	0x3b04a30d	0.0020238787
201	0x3d13cc67	0.036083605
202	0xbbd861cc	-0.006603455
203	0xbc70a076	-0.014686694
204	0x3bac6ee8	0.0052622445
205	0xbd160765	-0.036628146
206	0xbd926245	-0.0714765
207	0xbd6e6786	-0.058204196
208	0x3c0d62a5	0.008629476
209	0xbe1ccf46	-0.15313444
210	0x3d30cfa3	0.043166768
211	0xbd860587	-0.06544023
212	0x3e10005b	0.14062636
213	0xbe0601d1	-0.1308663
214	0x3d88b515	0.06675164
215	0xbc00388b	-0.007825981
216	0x3ce59cb3	0.028028822
217	0xbd63c04a	-0.055603303
218	0x3c8a5494	0.016886033
219	0x3df0b6f3	0.11753645
220	0xbb8db0c0	-0.0043240488
221	0xbdf8c8d1	-0.12147678
222	0x3cfa6516	0.03056578
223	0xbd59a009	-0.053131137
224	0x3ca70a64	0.020390697
225	0x3dd606fa	0.104505494
226	0xbcdb97b1	-0.02680573
227	0xbd2ed797	-0.04268607
228	0xbd13fe93	-0.036131453
229	0x3d915fa4	0.0709832
230	0xbda42f09	-0.08016784
231	0x3d22f11d	0.039780725
232	0xbd114850	-0.035469353
233	0xbdbb6009	-0.091491766
234	0x3ded6993	0.11592402
235	0x3dbea912	0.09309591
236	0xbe034d65	-0.12822492
237	0xbdf1cd57	-0.118067436
238	0xbdf57609	-0.11985404
239	0xbd5178b4	-0.051140502
240	0x3dafe505	0.08588604
241	0x3df571d3	0.11984601
242	0x3de991d3	0.11404767
243	0x3dda9dfa	0.10674663
244	0x3d93dde6	0.07220058
245	0x3dc53da7	0.096309
246	0x3daa8ba2	0.08327414
247	0x3df3da93	0.11906924
248	0xbcedd83b	-0.02903377
249	0x3db6df8f	0.08929359
250	0xbd0fc5c4	-0.035100713
251	0xbda01f02	-0.07818414
252	0xbcf71d20	-0.030165255
253	0x3d1bfb73	0.038081598
254	0x3df01aff	0.11723899
255	0xbdafc9dd	-0.08583424

seq.3.bias f4 [8]
0	0xbda706d1	-0.08155597
1	0x3db273ef	0.08713519
2	0xbd74e57a	-0.05978916
3	0x3c709218	0.014683269
4	0xbdc0a89b	-0.09407159
5	0x3ae68a62	0.0017588849
6	0x3d910367	0.07080727
7	0xbd90a904	-0.07063487
