simple-chatbot/data.pth (torch, 4991 bytes, 6 tensors)

l1.weight f4 [8, 54]
0	0xbc0380f9	-0.008026355
1	0xbd970b9f	-0.073752634
2	0xbcbd33ab	-0.023095926
3	0xbc802641	-0.01564324
4	0xbc80f557	-0.015741987
5	0xbd092391	-0.033481184
6	0x3d3eed60	0.046613097
7	0x3dcfeaaa	0.101521805
8	0xbdda5ba3	-0.106620096
9	0x3daf34fe	0.08555029
10	0xbdf42778	-0.119215906
11	0xbda1b87c	-0.07896516
12	0xbe130936	-0.14358982
13	0x3dab09b2	0.083514586
14	0x3d8e6572	0.06952943
15	0x3ce44404	0.027864464
16	0xbdc82c64	-0.09774092
17	0x3db309d1	0.08742107
18	0x3de341b9	0.1109652
19	0xbc81adde	-0.015829977
20	0x3c795aa8	0.015219368
21	0xbd451929	-0.048119698
22	0xbbfeb040	-0.0077724755
23	0x3d8f3fdb	0.06994601
24	0xbdfd9fc5	-0.12383989
25	0x3dc1b145	0.094576396
26	0xbd69f6fe	-0.057120316
27	0x3ca1535a	0.019693065
28	0xbd322d9a	-0.04350052
29	0x3e013335	0.1261719
30	0x3dcc05ac	0.09962019
31	0xbd735227	-0.05940452
32	0x3d2f7b34	0.042842105
33	0xbd59f0a9	-0.053208027
34	0xbd8f328c	-0.06992063
35	0xbdaccefa	-0.08437915
36	0x3cac9aed	0.021069968
37	0x3d9bc7ab	0.07606443
38	0xbd8c8604	-0.06861499
39	0x3cb06cae	0.021536198
40	0xbcbf523b	-0.02335464
41	0xbdfd1fd7	-0.123595886
42	0xbda1b9d0	-0.07896769
43	0x3ddc0c04	0.10744479
44	0x3cbaaec3	0.022788411
45	0xbd0cbd0d	-0.03435998
46	0xbdadf041	-0.084930904
47	0xbcd9911d	-0.026558453
48	0xbde2c7b1	-0.11073244
49	0xbd0d1586	-0.034444354
50	0xbdd92498	-0.10602683
51	0xbdb810f9	-0.08987612
52	0x3ddfa89d	0.10920832
53	0x3c7cbba7	0.015425599
54	0x3ed088fd	0.40729514
55	0x3f4b788b	0.7948081
56	0xbd1505e4	-0.03638257
57	0xbe44c46b	-0.19215553
58	0xbf09f942	-0.5389596
59	0x3ecf342b	0.40469489
60	0x3e1288bf	0.14309977
61	0xbdb8f086	-0.09030251
62	0x3e9745c9	0.2954543
63	0xbd80898d	-0.06276236
64	0xbedb7dd1	-0.42869428
65	0xbd91c261	-0.07117153
66	0x3ed9dc0b	0.42550692
67	0x3c2c0e35	0.010501434
68	0x3f237af0	0.6385946
69	0xbde06d60	-0.109583616
70	0xbe688dff	-0.22710417
71	0x3e841fb8	0.2580545
72	0x3e2f1657	0.17098366
73	0xbf27d12f	-0.65553564
74	0x3f200b6e	0.6251744
75	0xbf27ceab	-0.65549725
76	0xbf27d1f1	-0.6555472
77	0xbee53480	-0.44766617
78	0xbde23114	-0.11044517
79	0xbe0da137	-0.1383103
80	0x3e1de886	0.15420732
81	0x3f41eec6	0.75754964
82	0xbd2b812b	-0.04187123
83	0x3f205159	0.62624127
84	0x3ce18d96	0.027533334
85	0xbe6db8a9	-0.23214974
86	0xbccbb150	-0.024864823
87	0xbe7ccae7	-0.24686776
88	0x3f38536e	0.72002304
89	0x3db262d2	0.08710255
90	0xbe09a50d	-0.13441868
91	0x3e62c0ac	0.22143811
92	0x3e26d682	0.16292766
93	0x3e6c0f5e	0.23052737
94	0x3e48171e	0.19540069
95	0x3e306bab	0.17228572
96	0xbd357c1f	-0.044307824
97	0x3f203578	0.62581587
98	0xbdb42945	-0.08796934
99	0x3f372bce	0.71551216
100	0x3f7998be	0.9749869
101	0x3f037daf	0.5136365
102	0xbea69ed9	-0.32543066
103	0x3e0d969e	0.13826987
104	0x3d25135c	0.040301666
105	0x3e126b1c	0.14298671
106	0x3d69f28b	0.057116073
107	0x3ee31622	0.44352823
108	0xbe6940c9	-0.2277862
109	0xbe91c71b	-0.28472218
110	0xbe3151f1	-0.17316414
111	0x3ea5ca78	0.32381034
112	0x3ba4aeeb	0.0050257347
113	0x3f23605e	0.6381892
114	0xbdbbdec3	-0.09173348
115	0xbe45530c	-0.19269961
116	0xbeb3f078	-0.351444
117	0xbebff26a	-0.37489635
118	0x3eebebb8	0.46078277
119	0x3edc649b	0.43045506
120	0xbe584f3f	-0.2112398
121	0x3e8f41a0	0.27979755
122	0xbe90bc87	-0.28268835
123	0x3eca2eb4	0.39488757
124	0x3ee4d5cc	0.44694364
125	0x3f0ac6a9	0.5420938
126	0xbd4829ec	-0.048868105
127	0x3f111250	0.5666857
128	0xbe2c39d1	-0.1681893
129	0x3f10b40d	0.56524736
130	0x3f0fa216	0.561067
131	0x3f1044a6	0.5635475
132	0x3d52751c	0.051381215
133	0x3ec2c714	0.3804251
134	0xbe392c91	-0.18083407
135	0xbdc73704	-0.0972729
136	0xbe8b8e08	-0.272568
137	0xbe256991	-0.16153552
138	0x3f097664	0.53696275
139	0x3e83ad54	0.25718176
140	0x3d453bcf	0.04815274
141	0xbeae8a6e	-0.34089988
142	0xbe8fad31	-0.28061822
143	0x3e83d53e	0.25748628
144	0xbe9c6942	-0.30549055
145	0xbec1f16f	-0.37879512
146	0xbe979e42	-0.2961293
147	0xbdd4f835	-0.10398904
148	0x3f077e63	0.52927226
149	0xbe005cd4	-0.12535411
150	0x3e06496c	0.13113946
151	0xbdcb1475	-0.09916011
152	0x3d7be7a0	0.06150019
153	0xbe6f96e3	-0.23397402
154	0xbf33bc54	-0.7020924
155	0xbe2bf388	-0.16792119
156	0x3ddb2552	0.10700478
157	0xbe8006e1	-0.25005248
158	0x3ec8052e	0.39066452
159	0xbe4bcfa6	-0.1990343
160	0xbe4cc891	-0.19998385
161	0xbe2f5d5b	-0.17125456
162	0xbe91298f	-0.2835202
163	0xbecdd056	-0.4019801
164	0x3eff7944	0.49897206
165	0x3f0f103d	0.5588415
166	0x3f31df6a	0.6948153
167	0xbd7666a9	-0.060156498
168	0x3ee6ba8d	0.45064202
169	0x3f18ced2	0.5969058
170	0x3f0bf0f5	0.54664546
171	0x3ec301de	0.38087362
172	0x3f212470	0.62946224
173	0xbcb01061	-0.021492185
174	0x3f1a3128	0.60231256
175	0x3e06297b	0.13101761
176	0xbdaf77c4	-0.08567765
177	0x3d9c99ec	0.07646546
178	0x3f2e9894	0.68201566
179	0xbda19708	-0.07890135
180	0x3e369a7f	0.17832373
181	0x3f4ff2a1	0.812296
182	0xbe250a9c	-0.16117328
183	0x3f5441fd	0.8291319
184	0x3f4592e3	0.77177256
185	0x3ee0fa31	0.4394088
186	0x3d970dbf	0.07375669
187	0x3f4017a6	0.75036085
188	0x3eedae1d	0.464219
189	0xbeadf81c	-0.33978355
190	0x3e847aa3	0.25874814
191	0xbe8aa4c2	-0.27078825
192	0xbe1628d2	-0.14664009
193	0x3cb4496b	0.022007665
194	0xbd69c1d2	-0.057069607
195	0x3f24278e	0.64122856
196	0xbe2c0b71	-0.1680124
197	0xbdb3bf59	-0.08776731
198	0x3e8d5c45	0.2760946
199	0x3ed74b11	0.4204946
200	0x3e99790f	0.29975173
201	0x3f0791e3	0.5295698
202	0x3cdb89c7	0.026799096
203	0x3e94f412	0.2909246
204	0x3c56d4d6	0.0131122675
205	0xbe389a92	-0.18027714
206	0x3e90dbd9	0.2829273
207	0xbe92eae9	-0.28694847
208	0xbf4672d6	-0.77518976
209	0xbe70ca95	-0.23514779
210	0x3e9e97fe	0.30975336
211	0x3e4247c1	0.18972684
212	0xbd06f5fc	-0.032949433
213	0x3ed20723	0.4102107
214	0x3f02cae8	0.5109086
215	0x3ed50c7b	0.41611084
216	0x3eb9d256	0.36293286
217	0x3f41947d	0.756172
218	0xbe209040	-0.15680027
219	0x3ebfba78	0.37446952
220	0xbe28c99c	-0.16483158
221	0xbea4e1c0	-0.32203484
222	0xbeb4402f	-0.35205218
223	0xbf3315ab	-0.6995494
224	0xbc7c1f5e	-0.015388338
225	0xbf33f832	-0.7030059
226	0x3e414932	0.18875578
227	0x3f1c2d87	0.6100697
228	0x3e82eb30	0.2557006
229	0x3f175919	0.5912033
230	0x3efabe99	0.4897354
231	0x3ee0eff0	0.43933058
232	0x3e2e1fc8	0.17004311
233	0xbe4caae7	-0.19987069
234	0xbe26f936	-0.16306004
235	0x3ec7c5fc	0.39018238
236	0x3f323acf	0.69620985
237	0x3edd4a34	0.43220675
238	0x3ed7ee04	0.4217378
239	0x3f1e642b	0.61871594
240	0x3f0ca654	0.54941297
241	0x3e9e415a	0.30909234
242	0xbe3ae01c	-0.18249553
243	0x3f1bb8e4	0.60828996
244	0xbe00afa4	-0.12567002
245	0x3f1a298a	0.60219634
246	0xbdcad385	-0.099036254
247	0x3f3c318f	0.7351312
248	0x3d4d0550	0.050053895
249	0xbeb0e194	-0.34547102
250	0x3f3ff6a2	0.74985707
251	0x3f0edd43	0.5580637
252	0xbe792f84	-0.24334532
253	0xbdcfc477	-0.101448946
254	0xbe965be3	-0.2936698
255	0xbe4b4225	-0.19849451

l1.bias f4 [8]
0	0xbde97bc5	-0.1140056
1	0x3f27d372	0.65557015
2	0x3f658c19	0.896669
3	0x3f667d0f	0.90034574
4	0x3f690e42	0.9103738
5	0x3f5cc52e	0.8623837
6	0x3f31a8a5	0.69397956
7	0x3f1aab5f	0.6041774

l2.weight f4 [8, 8]
0	0x3dfa1326	0.122106835
1	0x3e964da4	0.2935611
2	0x3e985b02	0.29756933
3	0xbe3ff854	-0.18747073
4	0xbd659a8b	-0.056055587
5	0xbf0d1068	-0.5510316
6	0x3ec67926	0.38764304
7	0x3d6d0614	0.057867125
8	0x3d48f0f5	0.04905792
9	0x3f420d86	0.75801885
10	0x3f6ade4e	0.9174546
11	0x3f5be3d8	0.85894537
12	0x3ee30589	0.4434016
13	0x3fb8e30f	1.4444293
14	0x3e92adf1	0.28648332
15	0xbe6480dc	-0.22314781
16	0xbdbd020d	-0.09228907
17	0xbf96cbdc	-1.1780963
18	0x3f859634	1.0436463
19	0x3f2f324c	0.6843612
20	0x3f45cc0f	0.77264494
21	0xbf696427	-0.91168445
22	0x3f9399de	1.1531332
23	0x3f715b6f	0.9428014
24	0x3e50d1f5	0.20392592
25	0x3ea435f5	0.32072416
26	0xbef0b67c	-0.47014225
27	0x3eb9aa03	0.3626252
28	0x3e9867ca	0.29766685
29	0xbfa45159	-1.2837325
30	0x3f9aa0e3	1.2080349
31	0xbebb10bf	-0.36536214
32	0x3c4d79d1	0.01254125
33	0x3f3c72f2	0.7361289
34	0xbf871db1	-1.0555936
35	0x3e928468	0.28616643
36	0x3e8968dd	0.26837817
37	0xbf02780d	-0.5096443
38	0x3f0b5a8f	0.54435056
39	0xbd0a1f03	-0.03372098
40	0xbca66cc6	-0.02031554
41	0xbdcdfc1d	-0.100578524
42	0xbf38aac9	-0.721356
43	0x3f81c53d	1.0138317
44	0x3dabeadd	0.08394406
45	0x3c71f863	0.014768693
46	0x3fa6e4e4	1.3038602
47	0xbf52e336	-0.82377946
48	0x3d943773	0.072371386
49	0x3f826263	1.0186275
50	0xbe529111	-0.20563151
51	0xbf25fe26	-0.64840925
52	0x3f976e0b	1.1830457
53	0xbf848259	-1.0352279
54	0xbd2cd51f	-0.042195436
55	0x3f92c8e4	1.1467557
56	0xbe38aa38	-0.18033683
57	0xbe3acd74	-0.18242437
58	0x3e0f99d7	0.14023529
59	0xbe9b6e4f	-0.30357596
60	0xbe4ddd9d	-0.2010407
61	0x3e67db26	0.22642192
62	0x3e6bac09	0.23014845
63	0x3bd91d11	0.0066257794

l2.bias f4 [8]
0	0xbec880a8	-0.39160657
1	0x3f5d891b	0.8653733
2	0x3e7fc498	0.24977338
3	0xbed4e123	-0.41578016
4	0x3ee35f64	0.44408715
5	0x3ec62cba	0.38706
6	0x3e9f6478	0.3113134
7	0xbe9edf68	-0.3102982

l3.weight f4 [7, 8]
0	0x3ebee1e4	0.37281716
1	0xbf5f2e7f	-0.8718032
2	0x3f1c3139	0.6101261
3	0x3f1e3cfd	0.6181181
4	0xbf686fd2	-0.90795624
5	0xbf8190cc	-1.0122313
6	0x3e256ffe	0.16156003
7	0xbe4f1458	-0.20222604
8	0x3f0c53c3	0.5481531
9	0xbf44619b	-0.76711434
10	0xbf83d9cb	-1.030084
11	0x3f7ad0ec	0.9797504
12	0x3e5f6162	0.21814492
13	0x3df4d7cf	0.11955225
14	0x3ec0347d	0.37540045
15	0xbc4d8a97	-0.012545249
16	0xbe17b373	-0.14814548
17	0x3fa05486	1.2525795
18	0xbf7a3a18	-0.97744894
19	0xc009da06	-2.153932
20	0xbf74e4ec	-0.9566181
21	0xc019ed15	-2.4050953
22	0xbf960c9a	-1.1722596
23	0xbd5b7800	-0.053581238
24	0xbf541509	-0.828446
25	0x3cf5fef2	0.030028794
26	0x3f0b984e	0.54529274
27	0xbf75c36a	-0.96001303
28	0xbfad0237	-1.3516301
29	0x3e5fb24d	0.2184536
30	0xbf86ffca	-1.0546811
31	0x3d5b244d	0.053501416
32	0x3c818d76	0.015814524
33	0x3edbd6f4	0.42937434
34	0xbfe2a7a7	-1.7707413
35	0xbfc1d3d6	-1.5142772
36	0xbdee1130	-0.11624372
37	0x3f36d1e0	0.71413994
38	0xbf66b462	-0.9011899
39	0xbe84d430	-0.25943136
40	0xbf0e3f52	-0.5556537
41	0xbf3d42c5	-0.7393001
42	0xbe8ff259	-0.28114584
43	0x3f5ee11d	0.87062246
44	0x3f25c5b9	0.64754826
45	0x3f3764aa	0.71637976
46	0xbfcc28f9	-1.5950004
47	0xbdca7749	-0.09886033
48	0xbf7ead05	-0.99482757
49	0xbe0555c1	-0.13020994
50	0xbf57dc25	-0.8432029
51	0xbf8288cf	-1.0198001
52	0x3ebb9b95	0.36642137
53	0xbf90433c	-1.1270518
54	0x3f72d362	0.94853795
55	0x3e92e24d	0.2868828

l3.bias f4 [7]
0	0xbe8985f7	-0.2686002
1	0xbf0c3472	-0.54767525
2	0x3e682043	0.22668557
3	0x3da99b70	0.082816005
4	0x3c302932	0.010752009
5	0xbe8c66b6	-0.27422112
6	0x3e828561	0.25492385
